W3.npy (npy, 16128 bytes, 1 tensors)

array f8 [200, 10]
00000000: 92a7 bcae 2cc5 c13f 87f0 babb 2c7a c43f
00000010: 2fee 974f 9523 ddbf d1a7 3c13 5938 cd3f
00000020: 78f5 2e8b c583 e9bf 2947 1753 7fcb db3f
00000030: bc32 e072 c69d d2bf 2f41 a9a3 188f f3bf
00000040: 426a 9ee7 8404 e23f 12b1 3297 4519 f4bf
00000050: f621 f119 ea75 d6bf c0ed e53a 6839 b93f
00000060: b39d 578b 8573 f3bf b357 de45 78a7 edbf
00000070: ff61 198e 3843 f1bf f17b 3e03 bcd1 f63f
00000080: f760 af84 b16f d5bf 0b76 47d4 30ad e8bf
00000090: 61e4 efb5 9b04 c5bf c683 1f00 f09b e8bf
000000a0: d5c8 fbe7 6694 d63f 540c 6337 b591 e33f
000000b0: f6be 5acf 3b27 e63f 2d57 7278 9d91 d43f
000000c0: 6b93 c97d 47c5 fbbf 7bd6 5ebd 23ac f4bf
000000d0: 5d5b 38e9 c1e6 f9bf 1ba9 fb64 2a51 e4bf
000000e0: b3bd 43f6 39fb e8bf aafa ea13 d985 e83f
000000f0: dc0d 7d69 6ed2 c9bf d567 9cb3 c882 e1bf
00000100: c952 4d14 9d67 ce3f 9fe5 40c6 8713 f13f
00000110: 2dca 35ab 2737 ed3f f02f 652a dbea c13f
00000120: 555b b2cf f0cf df3f d4ca 153e 5a9a db3f
00000130: b9b3 01f9 9d13 ddbf 8fef d94f b053 80bf
00000140: ef33 08c4 cb45 c6bf cd3a baf8 2323 f93f
00000150: f8f3 df84 4ffd 463f 752f 23fa c19c dbbf
00000160: 110b 9cd0 c9ba c9bf 96d2 d337 f5e2 b5bf
00000170: 7a65 a77e f20e cabf 1abd 6a91 3f6d cebf
00000180: fd98 16bf 7d14 d5bf 890e 8428 8d74 c0bf
00000190: e2b5 fa7c 17c3 c3bf a0b8 ed8e dd31 d43f
000001a0: 58de 9755 88d7 f93f 0d8f 3313 c1f1 e13f
000001b0: 3822 453b d415 e3bf f42f 4743 1094 c93f
000001c0: 5a67 6038 b097 e5bf 863b e724 66e5 e13f
000001d0: 4b89 d0c6 ef1a 7dbf bba5 f598 ca9a f6bf
000001e0: de32 0b69 93c0 b13f 9f9f c75b 6d24 c3bf
000001f0: 6b38 6390 021b be3f 80b5 1226 d60a f33f
00000200: b9de 14c9 03bd f5bf d6c1 c439 8943 e33f
00000210: ff59 610c ddc7 e03f f0df d496 5879 eabf
00000220: 4e35 daca 5c5c b23f a1c7 8a78 f789 c3bf
00000230: 3574 40f4 9622 f03f ba83 0b79 2b71 be3f
00000240: 36f3 975b 5b40 d53f 191c af64 d9d4 cfbf
00000250: a2d3 e9d1 3b9a d33f 2bfc d08e c339 c83f
00000260: bb18 bf5b 6ecd e1bf 3bba b5db df05 b8bf
00000270: c6da e520 af2f d9bf 71f5 17e9 fced ddbf
00000280: e7f3 acd4 e593 c83f cddb 387c 179a e3bf
00000290: 2e2a b6ff 2acc e7bf 7b95 b9da f324 e4bf
000002a0: ebab e004 9fa1 fa3f abe6 7aaa bf2e 913f
000002b0: 55da fb23 f833 cdbf 6be6 51ed 5af4 a83f
000002c0: 7e60 20b8 2c6d ecbf adf7 435e c917 e2bf
000002d0: 0047 72a5 2013 debf 367d 2dfe 2923 aa3f
000002e0: 0386 9ccd 448b d63f 0f92 e626 7864 c6bf
000002f0: ac46 23df f32f aabf 7ccd 51d8 386c c13f
00000300: c8df a227 c199 de3f 050d bfb4 e930 d9bf
00000310: 215b 3787 4829 e23f 5475 8ee9 5a64 e43f
00000320: b909 459d 87af ccbf 1abe 1fbe df67 fb3f
00000330: 60ea d3be 541f f9bf f83c 3092 a6ee d9bf
00000340: 90a4 e453 c548 e2bf a475 8281 8761 f73f
00000350: 45d7 c776 2d88 ba3f c7a0 6d51 3195 d2bf
00000360: 0866 7655 c201 f2bf b967 4f89 4836 d63f
00000370: fa5d 2bb6 d9d4 b5bf 8d93 42b6 289a c6bf
00000380: e4e2 1649 e785 d03f 00fb 684c 5f15 cebf
00000390: a50c 1cfd 304a cdbf fa3f efbb a1c9 c2bf
000003a0: c5cc 465c 1933 f63f 257e 9c04 8e2b c93f
000003b0: 884d 51f5 66be d83f 015d 8be4 fc3e e93f
000003c0: 11ca 493a e984 c63f a927 82d6 b8dc ddbf
000003d0: d9b4 1f8e 846e f43f aabe ead9 608d c0bf
000003e0: 61a3 770b 1d5a f1bf 9fe3 2222 df24 d0bf
000003f0: a81e 045f 969b c0bf c060 ac34 9018 e1bf
00000400: 8d1b d08c eba5 e0bf dccf b362 b553 f1bf
00000410: 4f92 3c32 72df e13f 975e 6e46 542d e93f
00000420: 7be6 f0a0 75e2 ebbf d26e cb66 ed3c d0bf
00000430: 3990 0a7b b94d debf e04f c5ee c6fc ddbf
00000440: 0e71 e5d8 9546 ec3f d5d4 fc97 6603 d2bf
00000450: f219 45ed 163c 9ebf fe67 c146 9493 9fbf
00000460: 3106 a7a7 236c e1bf 5644 86fe e9bb d5bf
00000470: fa0e 3546 ef47 b7bf a6dd edeb d0d2 ac3f
00000480: f894 9e75 4dcf a23f eeee aeaa eb12 f33f
00000490: 75b9 3275 3ce3 d3bf 0c7b 1207 dc42 c83f
000004a0: de86 4ce5 cc9d b0bf e804 efe3 f40c bfbf
000004b0: 96e4 8b90 b285 e43f 4261 07d3 2c50 d8bf
000004c0: 3d09 c90e 5450 ec3f 83dd 455a 9af6 f03f
000004d0: d8b8 d27f fc68 dbbf 0ab1 d87f b994 edbf
000004e0: 086f 1222 7db7 f2bf f104 6fb2 97de d13f
000004f0: 8083 b564 89c8 e9bf 39a9 7775 b879 c9bf
00000500: 7652 85ad 1cb5 d93f 7694 71ad 6a31 c1bf
00000510: 7083 a634 91e7 e1bf 1525 af88 a134 dfbf
00000520: 251c 6fe7 711f f23f ebbf 30f1 16f6 eabf
00000530: f8d2 3a06 1c6a d2bf 6ddb 41cd db36 f43f
00000540: 1246 5ab8 ac73 e1bf dda1 27b9 fb1e f3bf
00000550: 88e7 768f 3ba4 e63f 4b72 ce4f acf8 d33f
00000560: b3c9 4a9b f1ad f0bf ace6 4f71 7c4f c63f
00000570: c1e5 6a1c 57c0 e93f e6b0 9cec 99f2 dbbf
00000580: 89e2 ea85 3e83 be3f 7812 728b 0e47 e03f
00000590: 3c45 10cd 6919 c4bf fd97 b515 c431 dbbf
000005a0: 3a4b ed96 a1fa dbbf e336 1f7c 986a a83f
000005b0: 1c69 f84f a3cd dd3f 2990 4baf bec3 eabf
000005c0: 4f83 112d d0b9 f2bf cdcd 09ec 1462 b7bf
000005d0: a527 1d38 5cca e53f a327 e15f 1d8c e7bf
000005e0: f0d5 b140 0f6d debf 3ad4 f5c2 18b8 d9bf
000005f0: 32f0 7a46 5d97 d4bf 72ab 4bfb d1ae a0bf
00000600: 9477 8013 d788 c0bf 47cb 414e cd21 e83f
00000610: 4a40 3c47 d4ff c63f f1dc 7927 b433 c2bf
00000620: 4820 2f94 ed4b e2bf 093e f3cc 5645 f2bf
00000630: 6b7c aaec 3262 f4bf eaaa d900 5ad1 ee3f
00000640: d4bf 486b f9ed e83f 49ac ae37 deb3 d9bf
00000650: 9d05 e86b 6579 a7bf 4cae 58df b6a3 a5bf
00000660: 684f 2047 c89f 79bf 2573 6a41 9142 febf
00000670: 1f27 dac2 bc48 d9bf d450 7f23 b2cf cabf
00000680: dd52 a0a5 129c da3f 6e72 ac16 1ecb d13f
00000690: f1df c0c1 1081 d13f f533 cc6f 5233 b03f
000006a0: 6e99 a0cf 3064 b0bf b91f 8b8f 7946 d5bf
000006b0: 4a57 4f14 07e6 d1bf 1b23 0f9b 40b2 e1bf
000006c0: a822 2006 4292 d13f c7f0 4777 b187 e0bf
000006d0: a158 a84a cbb1 a7bf 5b27 92ab f060 e0bf
000006e0: f20e 645a 4c24 c2bf d1b7 7423 f190 e8bf
000006f0: c539 983b f718 e5bf 5f60 e78d b59c f83f
00000700: d77f 05be 2951 f2bf f3a1 c5ba cb75 da3f
00000710: 88df 7b81 38bd d5bf f9c1 7392 0f01 a73f
00000720: 5317 cb8b 04b8 f2bf 7fa6 6e80 d1c3 edbf
00000730: 60ef 0c3a 95e1 d3bf c436 7a67 9739 d83f
00000740: 9447 f016 3507 d33f c835 39f0 b7e5 e3bf
00000750: dd01 c431 7026 d23f 6bc8 6210 5308 e23f
00000760: 9cd7 fdc8 caf7 dfbf 2475 79dd a3dc d93f
00000770: d503 f226 430f f8bf 3199 2221 f528 ec3f
00000780: 91ec d088 528f e63f d6a6 2f24 d999 bd3f
00000790: 6cd3 fc39 13f0 e5bf 0879 3f90 f220 d5bf
000007a0: 83ff 6e34 e27a eb3f bc07 934c ff69 c23f
000007b0: ec30 dc57 3325 e4bf a2e6 8c14 6341 ea3f
000007c0: 3089 1aae cb42 dc3f 8312 e2e9 ca5c cc3f
000007d0: 00dd 05fd 72f6 dfbf 6cb8 b2d5 e4c6 b83f
000007e0: cbed 2883 fe3d c73f 2830 05bf c02b d43f
000007f0: 0b49 7aee 3dbc e0bf 504f 0af4 afd9 cc3f
0.1388297894675899 0.15997847715869204 -0.4552968289642391 0.22828210295966625 -0.7973354071070125 0.43429549326275435 -0.29087983339631385 -1.2224356072438913
0.5630516551785336 -1.2561698824093281 -0.35094692738905964 0.09853221357291542 -1.2157035296494143 -0.9266930927867548 -1.0789113569973094 1.4262046934816193
-0.33494222600485507 -0.7711414476468134 -0.16420313247343457 -0.7690353395847687 0.35280773787156977 0.6115366060042882 0.6922892618076435 0.3213876415478463
-1.7356638825960669 -1.2920262715610125 -1.6188372717058066 -0.6349079105687311 -0.780667286859105 0.7663388623257863 -0.2017343535500079 -0.5472148426081228
0.23753703585921063 1.067268156459569 0.9129827827403624 0.13997973985749423 0.49706669123536545 0.4312959295558987 -0.454322331591182 -0.007972123562687531
-0.17400500366093705 1.571079227058067 0.000701583697945928 -0.4314427321194139 -0.20101282773983845 -0.0854943524644319 -0.20358115371963575 -0.23770899391590988
-0.3293756834122091 -0.12855686643898803 -0.154391227746074 0.3155435462748617 1.6151202529416846 0.5607610106494306 -0.5964146764391165 0.19983104023992804
-0.6747666455369015 0.5592528076903001 -0.007105766894741026 -1.4127908682806793 0.06934472384018472 -0.14954916936335125 0.11759964013183015 1.1901456343869938
-1.3586461882349978 0.6019941452305442 0.5243973962595304 -0.827312750428062 0.07172183945131858 -0.1526479090294375 1.008444742306222 0.11891433434676815
0.33205303139384357 -0.24868314186298404 0.30628867625574163 0.18926281426863176 -0.5563270370410217 -0.09383963693628854 -0.39353540623362127 -0.4676506305985049
0.19201348194647425 -0.6125600267613379 -0.7436728472105807 -0.6295108100863865 1.6644582930118712 0.016779894619253593 -0.22814847714444633 0.048739282102315006
-0.8883269878597415 -0.5654036370394714 -0.4699174514472446 0.05104953029398944 0.3522502906726858 -0.17494108104178038 -0.05114709948396742 0.1361151748893511
0.4781344306061297 -0.39361040736203307 0.5675394669477535 0.6372503816270787 -0.22410674266036582 1.7128598620146307 -1.5701491789065116 -0.40519108082021615
-0.5713831556833089 1.4613108691185994 0.10364040517728508 -0.290355996627579 -1.125429471814984 0.34706319245526235 -0.08527908990378555 -0.17657956027428803
0.25817281854283025 -0.23502722960434852 -0.22882664069047567 -0.14677831341259645 1.3874753574898915 0.19664168572579502 0.3866212268523772 0.7889389480359627
0.175931123219542 -0.4665968031700865 1.2769818832123774 -0.1293145240829195 -1.084500355524334 -0.25225046476003316 -0.1297481502481237 -0.5342484501625435
-0.5202539205791809 -1.082936654621327 0.5585261326965084 0.7867833495719933 -0.8713939803485141 -0.25371871031323423 -0.4734939290594898 -0.4685532886262518
0.883616374612332 -0.2814575657133223 -0.02952609847241123 -0.03083640748841531 -0.5444505953275379 -0.3395943627920749 -0.0909413858799403 0.05629589920038862
0.03673784313949996 1.192119280559321 -0.31074439473277177 0.1895403894931963 -0.06490784261816482 -0.12129145207201797 0.6413204978154166 -0.3798934994533917
0.8848057068610512 1.060205795887527 -0.4282828567765029 -0.9244048592568401 -1.1697970705926668 0.2792109720722485 -0.8057295767758745 -0.1990271161624351
0.4016792006052933 -0.13432057827882077 -0.5595174816445319 -0.48758734081327876 1.1326769867316753 -0.842540236544662 -0.2877264080846511 1.2633932130681516
-0.5453704453122461 -1.1950642807588487 0.7075479318657338 0.3120528010711367 -1.0424667421435572 0.17430072338884395 0.8047290377646094 -0.4366822062172687
0.11919012803526575 0.5086739276453747 -0.1570255519186875 -0.424912472916162 -0.43717231501539155 0.04768826022301 0.4656761437378394 -0.8363946365102538
-1.1703645477757225 -0.09134035837796901 0.6809521766638126 -0.7358538506170941 -0.4754064685615438 -0.40186137236679864 -0.32173854716143346 -0.032583772588472906
-0.12917602970349817 0.754126217694968 0.17968228796280733 -0.14220287253895195 -0.5717685598583637 -1.1419284826150735 -1.2739743466152287 0.9630556122404788
0.7790495963472446 -0.4016032737515088 -0.0458480543347932 -0.04226466633221246 -0.0062558959343908885 -1.8912518077187965 -0.3950645354130859 -0.20946337445514607
0.4157759301609028 0.2780223103925782 0.27350253030044686 0.06328311185298204 -0.0640287882712067 -0.3324264432708293 -0.279664773782646 -0.5530093220232603
0.27455187414356397 -0.516564114542711 -0.04627833639476476 -0.5118335104936976 -0.14173273481002685 -0.7676931087969426 -0.6592975772817274 1.538259081184172
-1.1448151991571558 0.41343968619778976 -0.3396741165629398 0.04492996847864456 -1.1699262104679817 -0.930153609127231 -0.31064348858830293 0.3785151014825312
0.2973149036416711 -0.6217918102135451 0.28359608516623586 0.5635161705051933 -0.49949903133471607 0.40409180286754265 -1.5037261506370119 0.8799996993227862
0.7049954101743358 0.1156287873597209 -0.6855560429163297 -0.33013595663750595 0.8587504409879191 0.14385977972966468 -0.6295410839097975 0.8204818154692541
0.4415768814307226 0.22158180637429234 -0.49941706380145945 0.09678487984885614 0.18157941250124873 0.3151704659874235 -0.5229787500159387 0.22539328971890393
