Predict digit/W3.npy (npy, 16128 bytes, 1 tensors)

array f8 [200, 10]
000000 53 68 c1 8a 80 f5 fa bf 5a 81 65 6e 04 56 e2 3f
       -1.684937040342011 0.5730001598531473
000010 0b 8d c7 57 21 14 fd bf 3a 1c 3c 78 78 e1 b9 3f
       -1.8174146107565459 0.10109665809078275
000020 db 4f 23 9e 36 6c e3 3f 7e 54 27 4e 3d ed d3 3f
       0.6069596375114047 0.3113549483508179
000030 5c 91 d2 8a 8a 30 f9 bf fe 0c 0b e7 0d 63 f8 bf
       -1.5743508742098902 -1.5241831803439818
000040 f1 21 72 21 5e 96 f1 3f 64 44 dd c8 45 39 ca 3f
       1.0992108637311697 0.20487282092884407
000050 92 dc 9c b9 bf 4d e1 3f 48 ca 20 ac 76 fe ed bf
       0.5407408356903878 -0.9373124467732135
000060 e7 85 28 bc 99 0f c9 3f d7 43 15 b0 b4 87 d1 bf
       0.1957885903112093 -0.27390782542812303
000070 05 90 f2 f7 10 dd db bf e6 9b 9a 07 c6 fc c8 bf
       -0.43536781514762907 -0.19521403666769216
000080 e0 0a b7 ab c9 89 ad bf 1f 47 47 e8 b1 92 e1 bf
       -0.05769186230783929 -0.549157098454291
000090 a3 23 90 59 81 cb c8 3f 86 81 92 05 d5 3e d8 3f
       0.1937104880637693 0.37883496803444705
0000a0 e3 aa 10 ab 41 cc da bf db 04 c7 23 f5 32 d3 3f
       -0.41871682839943797 0.2999852036846968
0000b0 03 a9 d6 e2 29 2d e0 bf 1b ab db 2d 1d 7e cf 3f
       -0.5055131369056486 0.24603619326747936
0000c0 b9 04 28 68 f5 30 fd bf 4c a8 ea 99 26 b4 d1 3f
       -1.8244527882200556 0.27662053137703846
0000d0 99 69 c8 74 36 b5 d2 3f cc 6b 30 11 58 01 f9 bf
       0.29231034664703653 -1.5628281279993983
0000e0 9f 9f b2 cc fd 22 b7 bf fe df 2f 60 92 31 e6 bf
       -0.09037767646316162 -0.6935512426998682
0000f0 9f ee 5d c9 08 78 e1 bf 5a 5d 2d f3 c9 0c d3 bf
       -0.5459026272723867 -0.2976555704858207
000100 3b 01 d0 69 9e f2 f0 3f c9 1e b2 4a 56 1b b5 bf
       1.0592331059743418 -0.08244838069560524
000110 18 9b a9 02 bc a3 ea bf aa 32 91 e9 65 a2 eb bf
       -0.8324871112825774 -0.8635739862307521
000120 77 09 2a 61 2f ad d1 bf 00 a9 f8 34 6e 14 f7 bf
       -0.2761953781956871 -1.4424879140083817
000130 52 86 3a 78 f0 53 ec 3f 9f 4e d1 e0 12 4d ab bf
       0.8852465007987098 -0.05332240099292317
000140 45 6f 1c a4 6f 29 e0 3f 9c f3 72 88 2d 5c cd bf
       0.5050581174177543 -0.2293755451445606
000150 75 8b ba 65 1f ce f0 bf 19 f0 62 ef 50 a3 d9 bf
       -1.0503229116227122 -0.4005930269011074
000160 d7 71 2c 9d 0b fb e4 3f 68 4d 7d 57 0e b7 d6 bf
       0.6556451864049063 -0.3549228529347688
000170 1d a7 0d 60 8e 7e e7 bf a0 44 2e 58 45 04 cf 3f
       -0.7341987491647363 0.2423178368158334
000180 71 7e 9a ae bb 57 e7 bf fe 42 2f 28 c6 e6 d2 bf
       -0.7294596109604311 -0.2953353302410021
000190 88 4f 42 d2 75 f1 e1 bf 23 64 ef 38 6e e9 e1 3f
       -0.5607251268979647 0.5597449409498306
0001a0 26 fd 35 48 58 2e f3 bf ff 20 00 2d c5 35 f1 bf
       -1.1988146610963866 -1.075627494605271
0001b0 d2 46 0f 6a ee a8 b1 bf ee 71 fc 31 cc 6c e4 3f
       -0.0689839371618988 0.6382809616366651
0001c0 91 5a 1a f0 77 bd bf bf 25 5d 29 79 9f 19 ea 3f
       -0.12398480998886387 0.8156278006016789
0001d0 47 f1 48 c6 91 dc d8 bf 65 6c 6f 0a f4 07 ee bf
       -0.38846248973620273 -0.9384708598912651
0001e0 89 05 f7 0e 83 45 e0 3f 1c ae 6c be e2 e8 e8 bf
       0.5084853451045755 -0.7784284323910842
0001f0 8c 8a e1 d7 4a 18 d7 bf 35 c3 d4 38 73 dd f8 bf
       -0.36085768777972116 -1.5540649623837457
000200 05 fc 0e 62 cb e5 e5 bf 45 a8 ee 74 fa 4a be 3f
       -0.6843010821538661 0.11833157877723106
000210 14 4c 32 e3 b2 0f e2 bf d2 de d2 14 78 a4 7b bf
       -0.5644163548880692 -0.006748646800751339
000220 95 55 bc 25 8d 4d d4 bf 00 c6 64 70 65 60 de bf
       -0.3172333591949948 -0.47463355995122924
000230 11 6a 9a 82 2e ac c5 3f a4 3d c6 50 97 73 a2 3f
       0.1693170678816647 0.03603813992514951
000240 35 21 7e 34 2a 5c c1 3f c5 28 8d 36 0c 99 d0 bf
       0.1356251484214767 -0.25934129073415263
000250 35 68 b6 ae 8d db db bf 87 98 d1 a8 cb fe e1 bf
       -0.4352754789521243 -0.5623529717675105
000260 10 67 ef c7 2e 6a ec 3f f1 e9 85 89 00 84 e3 bf
       0.8879617600425451 -0.6098635374067368
000270 bb 3c ee 8e 59 c9 cf bf 7c 2f e3 26 f1 d9 c0 3f
       -0.2483322093871488 0.13165106200028365
000280 db 04 67 21 14 e6 f1 bf 7f 06 6c 34 75 c1 f9 3f
       -1.1186715416700312 1.6097309158070912
000290 b7 80 93 b5 61 e6 e2 3f 2e 36 25 31 be 35 ee bf
       0.5906227632913418 -0.9440604171629212
0002a0 b2 e1 cd a9 21 07 be 3f 5e a4 b4 51 80 62 e7 bf
       0.11729631801234211 -0.730774077969851
0002b0 d8 90 f3 da f6 e9 b1 3f 36 9c e3 da a2 52 f2 bf
       0.06997626157277936 -1.1451748419147072
0002c0 fb d2 7f de d0 c6 db bf 81 e4 8e 8c 41 06 c1 bf
       -0.4340097592205862 -0.13300341952507114
0002d0 34 14 2a bf fe a8 94 bf ae e3 97 2a 1d 45 eb 3f
       -0.02017591516279911 0.8521867591763248
0002e0 44 42 40 95 e4 86 cd 3f 13 36 de dd 2b 77 ca bf
       0.23067910468718555 -0.20676182111167005
0002f0 dc c4 13 a5 0f 27 ce bf 56 d4 b9 ff 25 8e cf 3f
       -0.23556705055629024 0.24652552591911342
000300 92 7c 5f 5e 96 3c d7 3f 6c bc 8e df ed 8d bb bf
       0.3630729600535655 -0.10763441760967546
000310 aa e0 5c c8 04 2b ab 3f 0c 5b 81 4e c2 ef d3 3f
       0.053062581499433506 0.31150872866184964
000320 ce 48 c7 a1 3d 4d d5 bf 31 02 2a ca 32 6d d6 bf
       -0.3328394012325021 -0.3504149412401914
000330 ff 18 2e 82 d0 cc d4 bf 26 21 3b 60 c0 da d0 3f
       -0.32500088417909007 0.2633515300517665
000340 67 bd 10 89 19 12 d0 3f 30 df e5 75 a7 08 92 bf
       0.2511047209290695 -0.0176111379346075
000350 18 c8 25 a5 d8 78 e1 bf 9e aa ac 17 77 74 e0 3f
       -0.5460017419375189 0.5142169439689785
000360 e9 08 38 4e 4d e8 da 3f ce 11 d2 93 11 62 e9 3f
       0.4204285873276051 0.7932212721939835
000370 6a c3 7b 3c 8f e1 e0 3f 24 e5 ad 0b 2f bc ad bf
       0.5275341206853288 -0.05807635324067409
000380 8d 27 d0 62 ea 95 c8 bf 67 43 47 d7 0a 9e e4 bf
       -0.19207506012781686 -0.6442922787337978
000390 97 55 43 57 3c a5 df bf 86 97 5a 5b 19 06 00 c0
       -0.49446018716602097 -2.0029780518552256
0003a0 5c 09 d3 4d 53 42 e3 3f e1 ac 06 40 58 71 d4 3f
       0.6018463630683004 0.31941801312014034
0003b0 57 8c 53 b5 a9 1d cf 3f 80 da 7d d6 57 ce f0 3f
       0.24309274057222538 1.050376737459061
0003c0 9a ff 90 60 51 87 d0 bf ee b4 c3 2c ab d8 dc 3f
       -0.25825914793312565 0.4507244050171967
0003d0 3e e0 d6 1f fa eb d4 3f 71 28 56 94 31 a2 e4 bf
       0.32690289601623934 -0.6447990319441158
0003e0 fd e2 4c 5e 35 76 e4 3f 6f bf 61 ea 21 76 e8 bf
       0.639429744892453 -0.7644204690713944
0003f0 f9 84 d8 b7 c0 9f f3 bf ae 7c 68 e3 6a 4e dc bf
       -1.226502149722647 -0.4422862263472308
000400 51 b1 69 8c 8c 04 fd bf 8e cb ca c0 66 6b f0 3f
       -1.813610599982969 1.0262210398620684
000410 d0 56 13 b2 69 c8 e2 bf 0b b6 d0 81 1f 63 ec bf
       -0.5869644620931584 -0.8870999846892017
000420 b7 ae 44 f0 40 3e e8 bf f1 da e6 3e 6b e1 c0 bf
       -0.7575993244876916 -0.13187923976302998
000430 bf e1 88 86 39 2e 01 c0 01 81 9b 8a 37 5e e4 3f
       -2.1475706587336556 0.6365010935951717
000440 02 a0 fe e3 b2 fc e0 bf 27 c6 35 0b 1b 37 d6 bf
       -0.53084702043725 -0.34711338133556285
000450 7f 78 a1 77 13 11 db bf 04 20 8d c0 96 0f e1 3f
       -0.42291723902406625 0.5331529389159191
000460 5d 1f 37 8f be b1 e8 bf 16 21 22 ae 70 59 ac 3f
       -0.771697311131884 0.05536987424517485
000470 22 47 59 ba 05 6b ed 3f 89 8e c0 b3 be b9 e3 3f
       0.9193142547248707 0.6164239416870753
000480 2f de c9 43 fc 02 df bf 9a dd 45 a0 87 65 cc bf
       -0.48455721492743725 -0.22184844327760517
000490 c9 13 e2 e4 19 98 d6 bf 9b 75 e4 3c 62 3c fc 3f
       -0.3530335173784889 1.7647421244249475
0004a0 27 bd ee 15 12 30 ea bf 14 48 42 1f 62 ac f4 bf
       -0.8183679989214497 -1.2920857640315306
0004b0 ff 30 15 a5 7f 8c e7 bf d9 6a 81 16 b1 62 cd 3f
       -0.7359007095597291 0.22957433318045764
0004c0 88 53 3d df 45 ad cf 3f 49 73 03 5e 7b 2c d3 bf
       0.24747537041062295 -0.29958995991710374
0004d0 d2 84 f7 a2 30 28 d1 bf 26 7d d2 cc 41 af df bf
       -0.2680780021165222 -0.49507184030695084
0004e0 88 02 00 33 4e f9 c9 3f e6 a6 ad 6e 81 2d fd 3f
       0.2029206990264536 1.8236097644207176
0004f0 82 cc 49 76 f2 ff be bf 56 f2 a1 91 16 2b ff bf
       -0.12109294307610877 -1.9480195702336878
000500 b0 90 31 4a 4b 5a e0 3f cf a9 90 ae f3 95 d4 3f
       0.5110222291082405 0.32165233657238174
000510 2a 8a fe 20 d5 51 d5 bf f1 11 3a da 08 a3 9c 3f
       -0.33311966154193107 0.027965677566060113
000520 03 65 e9 01 fe 79 63 bf 81 67 9a f9 ce 46 d1 bf
       -0.0023775063594199133 -0.2699468076258356
000530 ca ad 47 f1 31 46 dd 3f 42 23 0e 48 b6 2b e1 bf
       0.45740936815738265 -0.5365859420136092
000540 09 76 f2 ba 76 e2 df 3f 19 9d a5 df 03 cd 88 3f
       0.4981972528129011 0.012109785330450639
000550 1d 6d df 7a c4 6f e7 bf 1d 69 3b 6c a2 fe b8 bf
       -0.7323934936388558 -0.09763541357407175
000560 9b de 2f 92 7f c8 c1 bf 87 c7 f0 c3 a5 bc c8 bf
       -0.1389312232783951 -0.1932570654622021
000570 e3 99 b1 48 7f 79 ef bf 65 62 9e f9 7f aa b6 bf
       -0.9835812015342608 -0.08853912204939147
000580 75 6a 53 73 68 2b e8 3f 41 4d 75 81 92 9c db 3f
       0.7552988293130755 0.4314314140549023
000590 6e 2c e1 a7 c1 67 82 3f 88 ef dd d2 9a 65 f7 3f
       0.00898696225717385 1.4623058545102783
0005a0 eb b2 c2 63 80 ac a3 bf f0 ce 74 54 b4 58 f2 bf
       -0.038425457170296294 -1.1466563510011234
0005b0 88 7f f9 f1 2c 02 f2 bf b0 f1 ac af 1d 5c d6 bf
       -1.12553114434556 -0.34937231212441144
0005c0 1f c4 8b 72 d5 b0 e8 bf 13 cc e5 da 93 9b d1 bf
       -0.7715861546731765 -0.2751207006141964
0005d0 7f 86 75 74 31 7f 36 3f 18 34 1e 3e 10 33 aa 3f
       0.00034327466388193306 0.051170833189736864
0005e0 6d f9 8b a1 cd 72 dd bf 59 d3 85 1e 92 4d b8 3f
       -0.46013203407337394 0.09493363614258267
0005f0 6a 7e cf 90 de 30 c6 bf 1a 3d ce f6 50 86 eb bf
       -0.17336637564493468 -0.8601460285589468
000600 e7 ea f4 93 12 91 91 3f 31 66 cf d7 fb 35 f6 bf
       0.01715497043663108 -1.3881796293338875
000610 42 45 26 6a 3d 88 8c bf a4 0c 41 3a 5c 0b dc 3f
       -0.013931731988835797 0.43819337548138493
000620 ed 33 95 c1 5f 1b d3 bf bb 6a 82 de 0c 9f a3 bf
       -0.2985457792718183 -0.038322832261845595
000630 01 a3 86 1d 5b 0d f2 3f bf 10 24 de 82 65 cb 3f
       1.128260722480434 0.214035376040675
000640 db 23 ca c5 df b5 ac 3f 19 6e b6 c5 79 9d c0 3f
       0.05607508935378976 0.1298057761567726
000650 50 ed 7b cc 25 b8 e6 bf fc 9f d4 71 86 f9 f0 3f
       -0.7099789613561516 1.0609192320353023
000660 ab 6c 03 40 5c f3 e1 3f bd 4a e4 fc f8 9c f5 3f
       0.5609570741902606 1.350823390825709
000670 c4 cf c3 c5 13 de d3 bf 03 1e 3a e0 ea ab dd bf
       -0.3104295188234085 -0.46361801049394574
000680 d4 01 7d 72 46 09 f5 bf ba 28 e3 8d fc b4 d3 bf
       -1.3147644493293358 -0.30792154174981656
000690 92 a5 f5 49 7d 33 e0 bf 44 35 fa 4c 67 15 c1 3f
       -0.5062853283426867 0.1334656835428324
0006a0 0e 8a b0 bf 1a 34 d9 bf af ee 43 75 50 a6 d1 bf
       -0.39380520553291454 -0.27577601863570583
0006b0 51 d5 35 42 fb 18 f7 3f 1b 24 d6 bc 7a 8b e7 3f
       1.4435989939059548 0.73577629930617
0006c0 93 66 74 99 d9 ec e1 bf cb 7a ab c9 6f 12 ef bf
       -0.5601623532449643 -0.9710005701889143
0006d0 70 f1 9c eb dd f6 ec bf 77 d0 d2 12 c2 f3 eb bf
       -0.9051351167504844 -0.8735056274076801
0006e0 48 4b c5 0b c1 df a2 bf 28 19 6e 81 b3 63 98 3f
       -0.03686335819897707 0.02381782987097228
0006f0 09 39 1e 49 12 16 95 3f f8 79 da 37 54 39 f9 3f
       0.020592008316776354 1.5764963323377952
000700 b4 1d 57 7f 3c 04 41 3f eb 98 b0 7e 0e 4e d8 bf
       0.0005193038365910924 -0.3797641980367092
000710 2c 6f 2f ef c1 bc a2 bf f7 a5 e7 7c 1a a7 c9 bf
       -0.03659635586492835 -0.20041209315176875
000720 0b 82 1a 3f be 18 9f 3f 20 dd fc ec 8e ac d9 3f
       0.030367825128111686 0.40115712302527307
000730 ef 17 e8 5e 34 20 c4 bf d4 2a 25 7f 26 db 9d bf
       -0.15723280557739325 -0.029156304846121042
000740 b6 d0 ee 07 40 df fe bf 1a c2 51 a3 2f 80 a4 bf
       -1.9295044240835018 -0.04004048222202901
000750 b5 32 83 49 74 d9 d9 bf 2e 46 9d 47 06 c2 e7 bf
       -0.40389735392526954 -0.7424346350400748
000760 bc f5 8b b3 82 4d d2 bf 0d 9b 54 f6 58 42 e7 3f
       -0.2859808686624452 0.7268490611212158
000770 a9 0d c2 05 24 67 f0 3f 61 51 8b f7 6b 4f e4 bf
       1.0251808381006902 -0.6346950373504506
000780 df d0 de 52 12 5e ec bf 14 62 60 d4 26 aa d3 bf
       -0.886483346801949 -0.3072602342595314
000790 a8 39 c8 a9 ab 0c ea bf 40 e7 ea e5 79 a2 fc 3f
       -0.8140466991479132 1.7896670323520567
0007a0 fd ad c4 18 66 58 da bf 1d b9 da e4 ed 85 d1 3f
       -0.4116454355123265 0.2737993941217541
0007b0 86 dd 75 0d 6a 76 ec bf c4 2b 5c c5 78 78 f3 bf
       -0.8894548666857396 -1.2169120511414215
0007c0 90 53 75 eb ca 03 f6 bf c6 68 63 ab 23 d4 f1 3f
       -1.3759259412374583 1.1142918295723105
0007d0 15 6a 9c 8e 1c 57 e8 3f 11 80 6d d1 e0 13 e6 3f
       0.7606337342616053 0.6899265375504929
0007e0 f8 43 96 c6 22 5f dd bf 01 a5 6a a0 2e 04 f7 bf
       -0.45893163102397194 -1.4385210291168848
0007f0 50 ca cb c0 43 ff c6 3f b7 5d fb c1 08 a0 f7 bf
       0.17966505922193443 -1.4765708520334166
